attack/w1_upset.npy (npy, 5248 bytes, 1 tensors)

array f4 [10, 128]
00000000: 6384 543d 3b8d 26c0 f7ab 4b40 e78b 3540
00000010: 94d1 db3d 2427 11bf ed27 a23f 38d8 52c0
00000020: 2587 fcbe 90b0 09be 27c1 95bd 7a79 a8bf
00000030: b2b5 c6be 7317 f3bf db0f 95bf 7ef9 52c0
00000040: 9fbc 01c0 cf78 91bf 17d0 72bf 7f17 a73e
00000050: fad0 91c0 7566 1e40 92a9 523f 6928 d83b
00000060: 4045 d4be a44d 9940 e677 1ec0 2b30 1bbe
00000070: b51b 70bf 41b0 1440 38c0 0bc0 b398 01bf
00000080: 3c6a 17c0 8a2f adc0 9ddf 8a3f c151 ec3d
00000090: f750 27c0 6577 c1bf 6606 0340 b4e8 17c0
000000a0: 2f3b 4a3f 08f0 a23e 9904 1140 6dfb 13c0
000000b0: bbfa 60be d5d6 9f3f 4798 c6bf bdb2 4e3f
000000c0: 590b 1540 d6f2 debf d0e8 e4bf 2fd4 e73e
000000d0: 0b76 5040 7755 4a40 9e9f 0840 7032 6a3f
000000e0: 7a7d 33bf 91f6 d6bf cb51 7d3e fbf8 dd3f
000000f0: 73ec 2d3e f1b2 0d40 2f12 c9bf f2c6 2e40
00000100: bfdd 41be 2f20 e3bf efe8 f43f fc14 08bf
00000110: 7f28 e33f 0a41 7340 a9e7 083e 4034 c1bf
00000120: 798b 753f 33f1 93be 19bd a43f d8bf cbbe
00000130: e6c2 3cc0 24a2 83bf 85e1 c1be ebb7 1a40
00000140: 719b 5a40 1de9 803f 3cb0 0240 4a5a d53f
00000150: 5e0a e6bf cd81 303f 8cd8 1c40 1096 13c0
00000160: 709c 353f 103c ddbf 2708 a6bf 1e26 57bf
00000170: 1da4 c4be 8467 f83f 7797 e33f 3f23 5f40
00000180: 3849 08bf 6c8d 2540 ff67 a43f 6ba9 6ebf
00000190: 2ae8 34bf 050d 473f e38f 1fc0 3797 51bf
000001a0: 5e5f a9bf 2e13 fc3f db37 fc3e 1c81 5dc0
000001b0: 7d2d e83f e236 9cbe 34b1 2440 5a1c 2abe
000001c0: 49f2 e1bf 7e31 09bf 3af1 073f 065b 57c0
000001d0: ab82 603e f37e 36bf cdb1 8a3f 4ee8 c53f
000001e0: 45c7 04bf 3ff1 0d40 3682 e7bf fbd0 40bf
000001f0: 340f 0240 a8b6 2a40 cb7f b9bf 2512 76c0
00000200: 2f08 78c0 6bd0 0f40 3123 dbbd 9e93 bc3f
00000210: e5d3 62bf 1995 c9be 1b8f afbf 3d55 be3f
00000220: 54dc 873f b7a1 84c0 6dfd 03bf d24a 0440
00000230: 0e01 1ec0 c451 7fbe 8f42 09bf b26d 1e3f
00000240: 0718 803d c9d4 e23e ade8 c3be e7e9 5c3f
00000250: 34bf a73f 20a5 a4be b1c9 923f 2f53 783f
00000260: f6f8 9840 63fe efbf b694 7f3e bddc 97bf
00000270: 7b96 c83f 992b 3640 0e46 ddbf 86a8 263f
00000280: b72f f9bd 251b 03c0 8c75 c6bf 6b83 11c0
00000290: cde9 9f3e 6e43 e8bf fb90 b6bd 3ffe 3b40
000002a0: c514 27bf 0ec7 d13d 3c8e 803f 132b f83f
000002b0: a33b d1bf f81d 4fc0 3f1e 19c0 883a f73e
000002c0: 4452 2e40 0eea 7d3f 48b2 2a40 6534 4440
000002d0: 8603 433f bf6b 4940 bb51 943f 51ed 9bbe
000002e0: e087 de3f 3548 7840 04fc cfbf 5925 19c0
000002f0: 7f42 0340 5d23 cd3f 6660 603f d83c d0bf
00000300: c523 f63f abf1 61c0 db57 4abf 7f42 cc3e
00000310: df87 febf 259c 1340 b1d3 8ebe 13d7 c4bb
00000320: 5e9b fd3e e652 9cbe cca2 e1bf 2c72 26c0
00000330: 0e55 0940 bc28 00c0 8ea6 6f40 0943 b8be
00000340: ff1b ad40 c64c 38c0 c1bf 3e3f 17ed 19c0
00000350: 5c79 79bf 3712 0dc0 6bc7 bfbf 47d2 463f
00000360: ee81 3cbf 9122 8ec0 252e 58c0 cfc5 a4be
00000370: 741e aebf 4342 c63f aaa7 ac3f 5084 aa3f
00000380: a702 c73f a6a4 4dc0 7fee 1240 4a07 f8bd
00000390: ed3e 8cbf a6cb 0ec0 bf00 803f ceb6 bfbf
000003a0: d5d1 1e40 4d5b 3dc0 8585 0ec0 1ea7 6240
000003b0: 02da ccbf 0bf5 35bf 1011 37c0 5fe7 cebe
000003c0: a1ab 2f3f b0e4 5cc0 78c9 b7bf 17ee 44c0
000003d0: 5f5b 3440 b4bf 6040 3d39 afbf a3a0 97bf
000003e0: 4be5 a5bf 2903 0240 ebba 09c0 1ca5 6f40
000003f0: dbef 92c0 3f9f a43f 1c30 17c0 cb59 c23f
0.051884066 -2.60237 3.182371 2.836664 0.10733333 -0.5670035 1.2668434 -3.294447
-0.49321857 -0.1344626 -0.073122315 -1.3162072 -0.38810498 -1.8991531 -1.1645464 -3.2964778
-2.0271375 -1.1364993 -0.9484877 0.32635114 -4.55676 2.4750035 0.82289994 0.006596614
-0.41459084 4.7907276 -2.476068 -0.15155093 -0.9379228 2.3232577 -2.183607 -0.50623626
-2.365859 -5.412053 1.0849491 0.11539031 -2.6143167 -1.5114561 2.0472655 -2.373578
0.78996557 0.31823754 2.2659056 -2.3122208 -0.21970646 1.2487437 -1.5515221 0.8074148
2.3288176 -1.7417858 -1.7883549 0.4527907 3.2572048 3.1614664 2.1347423 0.9148321
-0.7011334 -1.6793996 0.24738233 1.7341608 0.1698473 2.2140467 -1.5708674 2.7308927
-0.18932246 -1.7744197 1.9133586 -0.5315702 1.7746733 3.8008447 0.13369621 -1.509407
0.95915943 -0.28894958 1.2870208 -0.39794803 -2.9493957 -1.0283856 -0.3786737 2.4174755
3.4157374 1.007114 2.0420065 1.6668179 -1.7971914 0.6894806 2.450717 -2.306034
0.7094183 -1.7283955 -1.2971238 -0.8404254 -0.38406458 1.940659 1.7780598 3.4865263
-0.5323672 2.5867567 1.2844237 -0.9322726 -0.70666754 0.7775424 -2.4931571 -0.8187136
-1.3232229 1.9693353 0.49261364 -3.4610052 1.8138882 -0.30510622 2.5733156 -0.16612378
-1.7652065 -0.53591144 0.5310246 -3.3649306 0.21924846 -0.7128746 1.083551 1.5461519
-0.5186656 2.2178495 -1.8086612 -0.7531888 2.032178 2.6673985 -1.4492124 -3.8448575
-3.8754995 2.2470958 -0.107000716 1.4732549 -0.88604575 -0.39371565 -1.3715547 1.4869763
1.0614114 -4.1447406 -0.5155857 2.0670667 -2.4688144 -0.24933535 -0.53617185 0.6188613
0.06254583 0.44302967 -0.38263455 0.86294407 1.3105226 -0.3215723 1.1467801 0.9700193
4.7803907 -1.8749508 0.24959072 -1.1864239 1.5670923 2.846411 -1.7287004 0.65100896
-0.12167304 -2.0485318 -1.5504622 -2.273646 0.31233063 -1.8145578 -0.089143716 2.937393
-0.65266067 0.10243045 1.0043406 1.9388145 -1.6346325 -3.2362041 -2.392471 0.48286843
2.723771 0.99185264 2.6671314 3.065698 0.7617725 3.1472013 1.1587442 -0.30454496
1.7385216 3.8794072 -1.6248784 -2.3929045 2.0509336 1.6026417 0.8764709 -1.6268568
1.9229666 -3.5303752 -0.79040307 0.39894482 -1.9885215 2.3064053 -0.27895883 -0.006007084
0.49532598 -0.30531996 -1.7627807 -2.6007185 2.1458163 -2.0024862 3.7445407 -0.35988644
5.4096675 -2.8796859 0.74511343 -2.4050958 -0.97450805 -2.2042367 -1.4982733 0.7766461
-0.73635757 -4.4417195 -3.3778164 -0.32182166 -1.3603044 1.5488971 1.3488667 1.3321629
1.5547684 -3.2131743 2.2958066 -0.12110765 -1.0956703 -2.2311797 1.0000228 -1.4977663
2.4815571 -2.9586976 -2.2268994 3.54145 -1.6004031 -0.7107703 -2.8604164 -0.40410897
0.6862126 -3.451458 -1.4358358 -3.0770319 2.8180768 3.5117006 -1.3689343 -1.1845897
-1.29606 2.0314429 -2.1520336 3.7444525 -4.591779 1.2861098 -2.3623114 1.5183653
