attack/w2_upset.npy (npy, 401536 bytes, 1 tensors)

array f4 [128, 784]
000000 60 ff e3 3d 60 9c 62 40 be 98 91 bf a4 1f 33 40
       0.11132693 3.5407944 -1.1374738 2.7988062
000010 45 56 4e 40 f0 f1 16 c0 e3 2b c5 bf 7b 0c cf 3e
       3.2240155 -2.3585167 -1.5404018 0.4043921
000020 da ac 54 40 84 75 f2 3e 38 f7 05 3f 7a fc 59 3f
       3.32305 0.47355282 0.5233035 0.85150874
000030 9b 57 d2 bf d5 9f 8a 40 29 d8 22 c0 1e 31 7d 3e
       -1.6432985 4.3320107 -2.5444434 0.24725768
000040 8b ad 23 40 e3 95 6f 3f f4 56 1c be 10 6c bb bf
       2.5574672 0.93588084 -0.15267545 -1.4642353
000050 1f 36 3e 3f 05 f6 3a 40 e9 1f 31 c0 e1 a8 0b 3f
       0.7430133 2.9212658 -2.7675726 0.54554564
000060 46 b6 fa bf cf 95 09 40 86 fc 35 c0 1f f6 0a 40
       -1.9586875 2.1497686 -2.8435378 2.171272
000070 6e 25 29 c0 44 cd 00 3f 73 c9 0c 3f 00 d6 eb 3f
       -2.6429095 0.5031321 0.5499489 1.8424683
000080 53 73 23 bd fe b6 81 bf 9b 80 4a c0 cb fb 50 be
       -0.039904904 -1.013397 -3.1640995 -0.20408551
000090 06 58 b9 bf 92 b1 67 3b 91 3f df bf 50 dc 01 40
       -1.4479988 0.0035353643 -1.7441274 2.0290718
0000a0 50 dd 11 bf b3 6b ab be e9 97 99 40 df 78 7e bf
       -0.5697832 -0.33480605 4.7997937 -0.99403185
0000b0 54 82 8e 3f 3b 75 f0 3e 4d 39 a5 bf 7b 84 b5 be
       1.1133523 0.4696444 -1.2908112 -0.35452637
0000c0 43 c6 13 bf af 89 a8 3f a1 47 45 40 be 11 0e bd
       -0.577244 1.3167018 3.082497 -0.03468489
0000d0 c9 d4 71 40 dc 9e 26 40 4a fe 5c bf fb af 7c 40
       3.7786124 2.603446 -0.86325514 3.948241
0000e0 f7 02 ad 3e d4 2b a2 bf f2 ca 7a 3f 42 b5 e4 be
       0.33791324 -1.2669625 0.9796592 -0.4466954
0000f0 e5 67 83 3f ae 01 2d bf a8 4e 40 c0 aa 9d 3d bf
       1.0266081 -0.6758069 -3.0048008 -0.740687
000100 82 df b5 40 e7 e6 f7 3f 80 cd d2 3f 6c eb 6f 40
       5.6835337 1.9367341 1.6468964 3.748744
000110 7f 08 95 bf b3 8b 0b c0 27 de 29 c0 e4 1e 57 3f
       -1.1643218 -2.1804016 -2.654184 0.8403151
000120 3e 96 55 bf b8 27 08 c0 64 19 0e 3e bb d4 69 40
       -0.83432376 -2.1274242 0.13876873 3.653609
000130 b6 22 f9 3e af be e2 3c 5b 37 90 3f f0 c3 5e be
       0.48659295 0.027678816 1.1266893 -0.21754432
000140 c2 d5 07 3e d9 89 22 bf 87 87 f4 bc e0 95 a2 bf
       0.13265136 -0.6349159 -0.02984978 -1.2701988
000150 99 ad a4 bd c1 27 92 3f 5d ea 22 40 94 ca 01 c0
       -0.080409236 1.1418382 2.5455544 -2.0279894
000160 65 f7 ac bf d6 54 4a 3c f9 3e 82 3f 26 d8 69 40
       -1.3512999 0.012349328 1.0175468 3.6538177
000170 31 b4 d5 3e e5 65 f9 3f a7 aa a7 be 6a 5d 22 40
       0.41739038 1.9484221 -0.32747385 2.5369515
000180 df 9b 9d bf be 38 bc 3e 59 df 0b 40 2e 53 1d bf
       -1.2313193 0.3676204 2.185507 -0.6145505
000190 35 f4 f8 3f 8e 85 59 3f 12 b0 3f c0 2f ba 21 c0
       1.9449526 0.84969413 -2.9951215 -2.5269887
0001a0 a3 d6 4a 3f 35 ad 72 be 08 3c 62 be be 4f ea bf
       0.7923376 -0.23698886 -0.22093213 -1.8305585
0001b0 25 fc be bf 73 d3 9b 3d ab 38 5a be 4b dc fb bf
       -1.4920698 0.0760869 -0.2131068 -1.9676603
0001c0 d1 b8 ff bf 43 c0 c2 bf 70 f7 d2 3f 54 e7 ee 3f
       -1.9978276 -1.5214924 1.6481762 1.8664346
0001d0 76 fa 39 bf 79 4b 21 c0 4b e3 6b 40 f7 2b 3a c0
       -0.726478 -2.5202315 3.6857479 -2.9089334
0001e0 6e 44 8b 3f 06 16 7b 3f b7 a9 13 40 37 b1 4f c0
       1.0880258 0.9808048 2.3072336 -3.2451913
0001f0 d2 57 c2 3f 6c 5c 67 40 ce 28 f4 3e f6 26 2a c0
       1.5183051 3.615016 0.47687382 -2.658628
000200 c7 42 17 bf 12 da 12 c0 24 b4 10 bf 26 f4 c9 3e
       -0.5908627 -2.29456 -0.5652487 0.39444083
000210 9a 5f 9b 3f 86 1a 82 be 51 67 16 bf 7e 50 f3 3f
       1.213855 -0.2541086 -0.587514 1.9008939
000220 b3 e6 ca bf 15 ba c0 3e 64 53 f7 3f 2f ce db bf
       -1.5851654 0.3764197 1.9322324 -1.7172297
000230 4f b2 f3 3e ab ca b7 3f 09 77 cd 3f 77 bd 8e bf
       0.47596976 1.4358724 1.6051952 -1.115157
000240 88 7a 5d c0 6c 70 6e c0 ff 19 b7 c0 52 4c 9c be
       -3.4606037 -3.7256117 -5.7219234 -0.30526978
000250 d9 1e 6f 40 d7 06 a7 bf 62 85 ed 3f 43 44 4c 40
       3.7362578 -1.3048962 1.855633 3.1916664
000260 db aa ad c0 85 04 2c 3f 38 6f 48 bf bd 2b 04 3f
       -5.4271064 0.67194396 -0.78294706 0.5162924
000270 75 26 81 bf c0 d7 ef 3e ee d8 68 be ce 1a db 3f
       -1.0089861 0.46844292 -0.22739002 1.7117555
000280 ad b5 8a 3f f7 c2 7f c0 2b 1d cb bf 97 80 c1 3f
       1.0836693 -3.9962747 -1.5868276 1.5117368
000290 a9 aa e2 3e 10 1f 5f bd 51 ca 10 3e 32 a1 1e be
       0.44270828 -0.054472983 0.14139678 -0.15491179
0002a0 17 53 22 bf b9 a9 d9 3e c7 b8 cb be 00 4b 8a 40
       -0.63408035 0.425123 -0.3978941 4.3216553
0002b0 e4 ad 0a c0 e8 40 91 bf 04 67 b9 be e5 f3 d3 3e
       -2.1668634 -1.1347933 -0.36211407 0.41397014
0002c0 e0 69 16 3f ce 72 2c 40 60 bb e4 bf 40 88 61 bf
       0.587553 2.6945071 -1.7869682 -0.88098526
0002d0 52 7b 1e c0 09 e7 06 40 1d e1 53 3f 43 c8 59 bf
       -2.4762769 2.1078513 0.8276537 -0.850712
0002e0 96 d3 80 3f ab 58 c4 be fd da 0f bf 3c 3e 05 3f
       1.0064571 -0.38348898 -0.56193525 0.5204809
0002f0 f0 55 27 3f 3c e4 b0 bf 23 0a 86 bf ef d0 16 bf
       0.65365505 -1.3819652 -1.0471843 -0.5891256
000300 2b e3 56 bf 44 f1 36 c0 26 3a b0 bf 91 d3 ad bf
       -0.8394038 -2.8584757 -1.3767745 -1.358019
000310 fb 39 d8 be b8 c6 88 3e 5b 6f 9a bf ce 5f a9 bf
       -0.42231736 0.2671411 -1.2065233 -1.3232362
000320 b0 24 d0 bd 8f 71 cc 3e 4d c2 47 40 c9 fd 47 c0
       -0.101632476 0.39930388 3.1212342 -3.1248648
000330 27 ba d9 bd f3 04 a3 bf 9d a0 c0 3e 61 47 57 bf
       -0.10631209 -1.2735885 0.37622538 -0.8409329
000340 8c 83 2c c0 aa 06 fd bf 36 ec d9 bf a7 a0 d0 3e
       -2.695529 -1.9767659 -1.7025211 0.40747568
000350 68 13 1d c0 96 b0 48 3f 74 3c 86 3f ac b4 02 c0
       -2.4543095 0.7839445 1.0487199 -2.0422773
000360 0f 2a 3a bf b7 e8 8c bf a7 f9 bf 3f 80 b7 ac 3f
       -0.72720426 -1.1008519 1.4998063 1.34935
000370 08 9f 97 40 85 b1 c9 be d7 82 6d 3e df 32 77 bf
       4.738163 -0.3939325 0.23194443 -0.96562
000380 0d 0c 0d 3e 41 aa 90 3e 6a 2d 81 c0 19 68 45 c0
       0.13774128 0.28254893 -4.0367937 -3.0844786
000390 a7 67 99 40 b5 c9 ac 3f 61 0f 6d c0 e8 c5 9c 3f
       4.793903 1.3499056 -3.7040637 1.2247896
0003a0 13 23 5d c0 e0 90 21 c0 0b 4f 01 c0 48 c1 24 bf
       -3.4552658 -2.5244675 -2.0204494 -0.64357424
0003b0 d9 c2 40 c0 25 f8 2f bf 19 a1 0f 3f 33 24 98 3f
       -3.0118926 -0.68738014 0.5610519 1.1886047
0003c0 72 a5 ec 3e 55 79 62 bd 69 62 ab 3d 10 50 a5 3f
       0.46219975 -0.055291492 0.083683796 1.2915058
0003d0 dc d8 0d c0 64 fa 3a 3f 85 d0 e1 bf 62 04 0c 3e
       -2.216361 0.73038316 -1.764176 0.13673547
0003e0 2a 24 5c bf 65 82 31 c0 4f d6 76 c0 13 53 81 bd
       -0.8599268 -2.7735837 -3.8568304 -0.06314673
0003f0 d9 e5 74 3f 5f 41 ba bf 5d 4d 4c c0 db ce 08 3f
       0.9566322 -1.45512 -3.1922219 0.53440636
