learn/w1.npy (npy, 401536 bytes, 1 tensors)

array f4 [784, 128]
0	0xbf4fb28d	-0.8113182
1	0x3fc3db8a	1.5301373
2	0x3d85cb68	0.06532937
3	0xc01c5544	-2.4427042
4	0x3d9e2c30	0.07723272
5	0x3f2370ea	0.6384417
6	0x3f09e3e0	0.53863335
7	0xc00826f3	-2.1273773
8	0xbf3e4482	-0.74323285
9	0xbd58e9ea	-0.052957453
10	0x3f31fcd6	0.6952642
11	0xbe70b203	-0.23505406
12	0x3ff3fe89	1.9062053
13	0x3f0b7e37	0.54489464
14	0xbec15646	-0.37761134
15	0xbfbe1fbb	-1.4853433
16	0x3fa181b7	1.2617711
17	0xbd72bea0	-0.059263825
18	0xbe79e690	-0.24404359
19	0x3fca71fc	1.5816035
20	0xbfdf19e0	-1.7429771
21	0xbef7f5f1	-0.48429826
22	0xbf10e608	-0.56601
23	0x3ebea124	0.37232316
24	0x3f91009b	1.132831
25	0xc011cef7	-2.2782571
26	0x3ee705a6	0.45121497
27	0xbfa806d7	-1.3127087
28	0x3ec231e2	0.37928683
29	0xbfdd79ed	-1.7302834
30	0xbd8b9d74	-0.06817141
31	0x3f66503e	0.8996619
32	0xbfb1d19a	-1.389209
33	0x3fbda08f	1.4814624
34	0xbe7b62fd	-0.2454948
35	0xbf45f212	-0.77322495
36	0xbe489914	-0.19589645
37	0x3ce0773e	0.02740061
38	0x3f220b09	0.6329809
39	0xbfc0ed3c	-1.5072398
40	0x3fa6feda	1.3046525
41	0xbf98ff82	-1.1952975
42	0x3d0134e8	0.031544596
43	0x3ee40e89	0.4454234
44	0x3edfb6dc	0.43694198
45	0xbea234c7	-0.3168089
46	0xbeea4cb6	-0.4576165
47	0xbfe2863b	-1.7697214
48	0x3e160303	0.14649586
49	0xbf561c05	-0.83636504
50	0xbf4935d1	-0.7859774
51	0xbe825e54	-0.25462592
52	0xbff88588	-1.941575
53	0xbebd08d9	-0.36920813
54	0x3f87e8d2	1.0617926
55	0x3fc3e0aa	1.5302937
56	0x3e39a5e8	0.18129694
57	0xbe90f774	-0.28313792
58	0x3e94df38	0.29076552
59	0x3fe44d1a	1.783603
60	0x3f8021e6	1.0010345
61	0xc003c84a	-2.0590997
62	0xbea0f6d1	-0.31438306
63	0x3fa4e88b	1.2883466
64	0x3f31de9c	0.694803
65	0xbf8863f1	-1.06555
66	0x3b7d9482	0.0038693254
67	0xbf8c25ed	-1.0949074
68	0xbe3c7e2b	-0.18407504
69	0xc0095f71	-2.1464503
70	0x3fea8220	1.8320961
71	0x3f9f20db	1.2431902
72	0xbeab9890	-0.33514833
73	0xbd23e05a	-0.04000888
74	0xbeabf537	-0.33585522
75	0xbe9d69f4	-0.30744898
76	0xbf39e926	-0.7262138
77	0xbe6d7a67	-0.23191224
78	0xbe96e34b	-0.29470286
79	0xbf490497	-0.7852263
80	0xbfa86f79	-1.3159019
81	0x3edab944	0.4271947
82	0x3e1a2e4c	0.15056723
83	0xc003baf7	-2.0582864
84	0x3ed09a3e	0.40742677
85	0xbf892a06	-1.071595
86	0x3ecac37b	0.39602265
87	0x3f042e97	0.5163359
88	0x3fc05e86	1.5028846
89	0x3da8c4c5	0.08240656
90	0xc01aa038	-2.416029
91	0xbf1b00db	-0.6054818
92	0x3d9139f7	0.07091134
93	0xbf22dec0	-0.6362114
94	0xbed9abd3	-0.42513904
95	0x3f4da2aa	0.8032633
96	0xbfe6baa9	-1.8025714
97	0x3ea318b2	0.3185478
98	0xc02ef714	-2.7338305
99	0x3ffd8a99	1.9807922
100	0x3e213597	0.15743099
101	0x3efad57e	0.48991007
102	0xc00f4923	-2.238839
103	0x3ef83518	0.48478007
104	0xbee87328	-0.45400357
105	0xbd8db790	-0.069197774
106	0x3f37f168	0.7185273
107	0xbe08a147	-0.13342772
108	0x3f98b226	1.1929367
109	0x3f9a39d9	1.2048904
110	0xbfd61b45	-1.6727072
111	0xbfa9a76d	-1.3254219
112	0x3f0a05e4	0.5391524
113	0xbb394486	-0.0028269603
114	0xbf601767	-0.8753571
115	0x3f6e848a	0.9317099
116	0xbfaf9ec6	-1.3720329
117	0x3e902d46	0.2815954
118	0xbf33ebfd	-0.70281965
119	0x3e91df15	0.2849051
120	0x3e9d1b96	0.3068511
121	0xbba28a8e	-0.0049603647
122	0x3f5dd33a	0.8665043
123	0x3ec19fa3	0.37817106
124	0xbe864908	-0.26227593
125	0xbe95247a	-0.29129392
126	0x3edfd859	0.43719748
127	0x3fb9757b	1.4488977
128	0x3e3b2370	0.18275237
129	0xbc6b51ad	-0.014362735
130	0x3f6f7c85	0.93549377
131	0x3ff4b62f	1.9118098
132	0x3eae4d58	0.34043384
133	0xbf853a5c	-1.0408435
134	0xbc1f2215	-0.009712716
135	0xbdd52090	-0.104066014
136	0xbf420e1a	-0.7580277
137	0xbe503b7a	-0.20335189
138	0xbf6d39e5	-0.92666465
139	0x3db7a865	0.089676656
140	0x3dea9663	0.11454465
141	0x3c39e1f9	0.01134538
142	0xbf86b4b3	-1.0523895
143	0x3f7003d2	0.9375583
144	0xbfdaaf18	-1.7084684
145	0xbfb1a1fa	-1.3877556
146	0xbf0f917f	-0.56081384
147	0x3f0cf046	0.5505413
148	0x3cd15d9a	0.025557328
149	0xbeaee7d0	-0.34161234
150	0x3c2a05f4	0.010377396
151	0x3eda6512	0.42655236
152	0xbfc6ea50	-1.5540257
153	0xc0193c06	-2.3942885
154	0x3e8ec787	0.27886602
155	0xc00d1c16	-2.2048392
156	0xbf6d59f2	-0.9271537
157	0x3f721923	0.94569606
158	0xbed481f8	-0.41505408
159	0x3e9fdf94	0.31225264
160	0xbe821cc9	-0.25412586
161	0xc00e7783	-2.2260444
162	0xbf7d82f4	-0.99027944
163	0x3fd31d18	1.6493254
164	0xbe0be914	-0.13663131
165	0xbfa45090	-1.2837086
166	0xbf57bef4	-0.84275746
167	0x3f7c2eef	0.98509115
168	0xbeea2431	-0.45730737
169	0xbfad0571	-1.3517286
170	0xbfdb7b85	-1.714707
171	0xbf98c1d7	-1.1934155
172	0xbfb735ce	-1.4313295
173	0xbd4ab652	-0.04949028
174	0x3ee92654	0.45537055
175	0x3f89338d	1.0718857
176	0xbf3c1963	-0.7347624
177	0xbe58bf12	-0.21166638
178	0x3fbe656f	1.4874705
179	0xc018afe9	-2.3857367
180	0x3df6c414	0.12049118
181	0x3f1c9639	0.6116672
182	0x3c32b4ac	0.010907333
183	0xbe88c3be	-0.2671184
184	0x3ca4fe01	0.02014065
185	0xbe183bf6	-0.14866623
186	0xbf51f748	-0.82017946
187	0xbf0c3aa4	-0.5477698
188	0x3f5bb820	0.8582783
189	0xc004ee54	-2.0770464
190	0x3f1c864d	0.61142427
191	0xbf2ecad2	-0.6827823
192	0xbe47bcda	-0.19505635
193	0x3f840146	1.0312889
194	0x3cc094cf	0.023508457
195	0xbc9ad128	-0.018898562
196	0xbf1477df	-0.5799541
197	0xbfe638da	-1.79861
198	0x3f36201c	0.71142745
199	0xbe8dec13	-0.27719173
200	0x3f78fd63	0.9726164
201	0xbf44d888	-0.768929
202	0xbf305174	-0.6887429
203	0xbf54dc5c	-0.8314874
204	0x3f3ecdfa	0.74533045
205	0x3f9b3026	1.2124069
206	0x3f018e99	0.5060821
207	0xbf4a7b40	-0.79094315
208	0xbd0080d3	-0.031372856
209	0xbf0d8a13	-0.5528881
210	0x3e9f10ba	0.3106745
211	0xbf1283ff	-0.5723266
212	0x3f32080e	0.6954354
213	0xbd1cd2ab	-0.038286846
214	0x3fadbf30	1.3573971
215	0xbf130398	-0.5742736
216	0xbf3b2a8f	-0.73111814
217	0xbef6b59f	-0.4818544
218	0x3d6a0504	0.05713369
219	0xbbb7fac8	-0.0056146123
220	0x3ff9ab2b	1.9505361
221	0x3faf2530	1.3683224
222	0x3f52e27c	0.8237684
223	0x3f60c393	0.8779842
224	0x3f212123	0.6294119
225	0x3d8792cd	0.06619797
226	0xc028ac78	-2.6355267
227	0xbfc62be5	-1.5482146
228	0x3f69c49a	0.91315615
229	0xbf851541	-1.0397111
230	0xbf6944a0	-0.9112034
231	0x3e50548b	0.2034475
232	0xbc706be3	-0.01467416
233	0xbdedbbd9	-0.11608095
234	0xbec4b19d	-0.38416758
235	0x3eeece93	0.4664198
236	0xbf6e67fa	-0.93127406
237	0x3f8ff5ab	1.1246847
238	0xbf3de85f	-0.74182695
239	0xbfa8164d	-1.3131806
240	0x3f30059b	0.68758553
241	0xbf82cba3	-1.0218395
242	0x4002f020	2.045906
243	0xbfab1f12	-1.3368857
244	0x3e60ea1d	0.21964307
245	0xbf7bd8fa	-0.98377955
246	0xbf26d77e	-0.65172565
247	0x3f2a21d9	0.664579
248	0x3f50ae74	0.81516194
249	0x3ea4e1ec	0.32203615
250	0x3ffe3bcc	1.9861999
251	0x3d2bb103	0.04191686
252	0xbe783c38	-0.24241722
253	0x3f116a9f	0.56803316
254	0x3ed3e1aa	0.41383106
255	0x3f87ee1e	1.0619543
