learn/w2.npy (npy, 5248 bytes, 1 tensors)

array f4 [128, 10]
-0.80063176 1.2890913 -0.075737186 -2.3000646 0.11026413 0.9025282 0.41349784 -2.10077
-0.8484979 -0.28170732 0.672503 -0.20090024 1.506964 0.7561061 -0.13132466 -0.93460184
1.1026797 -0.11379182 -0.20818312 1.1045437 -1.7860786 -0.52606076 -0.6142868 0.28968427
1.0614558 -2.1744742 0.5086738 -1.3059683 0.34255758 -1.755676 -0.15495344 0.9928742
-1.4751296 1.2995183 -0.4995365 -0.32910693 -0.06076855 -0.090644926 0.5129055 -1.6299734
0.9626652 -1.1764966 0.108328074 0.6016129 0.2531677 -0.31176755 -0.13798109 -1.6248088
0.25418898 -0.9831825 -0.59648657 -0.4256972 -1.5255382 -0.20335238 0.67858744 1.3905137
0.16399178 -0.20105152 0.34019926 1.567992 0.8222664 -1.9935391 -0.29835418 1.1297833
0.48461947 -0.90480405 0.3417545 -1.0458168 -0.20555334 -2.1266835 1.6353852 1.2259551
-0.29675636 0.028282486 -0.3971771 -0.106149174 -0.47843337 -0.48790276 -0.45190245 -0.9216831
-1.1835381 0.41519898 0.120372556 -1.8975315 0.36935633 -0.954224 0.20063083 0.65213066
1.0038621 0.2107927 -2.356359 -0.7754262 -0.12122841 -0.78432167 -0.63151425 0.75304544
-1.6510984 0.44373268 -2.5401444 1.8850942 0.030198148 0.5512225 -2.0345237 0.55090296
-0.5127174 0.19899128 0.81796443 -0.26182893 1.0003198 1.1250765 -1.6182137 -1.1328241
0.20753172 -0.06503067 -0.7694567 0.87921435 -1.1980615 0.1496905 -0.5684626 0.35057294
0.14429872 -0.06135405 0.5655375 0.67174554 -0.28286418 -0.18771769 0.42796123 1.2293519
0.21953985 0.15868136 0.8942255 1.7210265 0.2679586 -0.6484495 -0.30536467 -0.12776023
-0.31116936 -0.36782196 -1.0061358 -0.06759621 0.1880812 -0.25763586 -0.96714437 0.79286313
-1.7259058 -1.2769558 -0.3426781 0.48722556 -0.09658312 -0.39230326 -0.00014584788 0.34047955
-1.4830581 -2.4117486 0.23958851 -2.1619744 -0.9299198 0.89967525 -0.3401384 0.26998237
-0.32078058 -2.2965512 -1.0856466 1.6299636 -0.21179171 -1.0179968 -0.84489006 0.878378
-0.5631456 -1.3952438 -1.5312437 -1.1845522 -1.4767001 0.13407917 0.21084863 1.0804876
-0.7916707 -0.18175401 1.2957565 -2.256748 0.017900422 0.6422847 -0.004032025 -0.23168972
-0.026189014 0.16102523 -0.7249292 -0.67636716 0.6147913 -2.1386633 0.5676891 -0.6637092
-0.26390266 0.92275864 -0.20243506 0.091039926 -0.45519844 -1.7140963 0.61824745 -0.3566478
0.84778845 -0.81511635 -0.65965086 -0.7826664 0.6112124 1.5178252 0.43060327 -0.68291897
-0.24026854 -0.5782561 0.11418171 -0.59884614 0.53826743 -0.05185745 1.2723234 -0.5327942
-0.42128342 -0.55449617 0.16831265 0.20372425 1.6871027 1.4791193 0.5546556 0.83322835
0.51621425 0.31385383 -2.619725 -1.4219651 0.8279393 -1.0039924 -0.7831043 0.039456844
-0.18159553 0.1856558 -0.5086406 0.78002876 -0.9575243 0.84395593 -0.74326223 -1.2911719
0.6278904 -1.0161805 2.0053263 -1.2087773 0.26219308 -0.80400383 -0.60941327 0.5436093
0.7510744 0.20970835 1.6989696 -0.26693743 -0.45662296 0.5156088 0.14881231 1.2133985
00000000: 34f6 4cbf f200 a53f 191c 9bbd 4234 13c0
00000010: 29d2 e13d 170c 673f fdb5 d33e 0473 06c0
00000020: 2937 59bf f13b 90be 2829 2c3f cbb8 4dbe
00000030: 32e4 c03f 2b90 413f f979 06be 1142 6fbf
00000040: 9c24 8d3f b00b e9bd f52d 55be b061 8d3f
00000050: 399e e4bf ebab 06bf e641 1dbf 7f51 943e
00000060: c9dd 873f 962a 0bc0 7238 023f f829 a7bf
00000070: b563 af3e feb9 e0bf 1dac 1ebe 012d 7e3f
00000080: 0cd1 bcbf 9e56 a63f 40c3 ffbe b480 a8be
00000090: 71e8 78bd 0ca4 b9bd c64d 033f f8a2 d0bf
000000a0: 3a71 763f 7197 96bf 1cdb dd3d 4e03 1a3f
000000b0: 329f 813e ff9f 9fbe ea4a 0dbe bcf9 cfbf
000000c0: 0f25 823e d9b1 7bbf 58b3 18bf fcf4 d9be
000000d0: d644 c3bf 9b3b 50be e8b7 2d3f 5afc b13f
000000e0: 76ed 273e 73e0 4dbe 992e ae3e f6b3 c83f
000000f0: 0d80 523f 4a2c ffbf e1c1 98be bd9c 903f
00000100: 0b20 f83e 3da1 67bf 72fa ae3e 53dd 85bf
00000110: 937c 52be 951b 08c0 4d54 d13f 19ec 9c3f
00000120: 73f0 97be acb0 e73c cc5a cbbe bd64 d9bd
00000130: 38f5 f4be 64ce f9be c25f e7be 6cf3 6bbf
00000140: 2d7e 97bf f694 d43e e385 f63d 50e2 f2bf
00000150: 461c bd3e 0648 74bf 2b72 4d3e 09f2 263f
00000160: 8e7e 803f 0bda 573e 96ce 16c0 5582 46bf
00000170: 9a46 f8bd 4ec9 48bf ebaa 21bf 96c7 403f
00000180: 3157 d3bf ee30 e33e ba91 22c0 c44a f13f
00000190: 1b62 f73c eb1c 0d3f a335 02c0 fa07 0d3f
000001a0: 7341 03bf 5fc4 4b3e 1e66 513f 710e 86be
000001b0: 7b0a 803f 8202 903f a021 cfbf 6100 91bf
000001c0: 3283 543e cd2e 85bd 1dfb 44bf 3114 613f
000001d0: 145a 99bf 7748 193e c486 11bf 4c7e b33e
000001e0: 0bc3 133e 624e 7bbd 11c7 103f 84f7 2b3f
000001f0: 93d3 90be 1139 40be bc1d db3e 675b 9d3f
00000200: 0ecf 603e 5e7d 223e f6eb 643f 994a dc3f
00000210: df31 893e c900 26bf c258 9cbe 94d3 02be
00000220: 9751 9fbe 2953 bcbe 0fc9 80bf e26f 8abd
00000230: 5c98 403e d9e8 83be c696 77bf 14f9 4a3f
00000240: 7bea dcbf 4a73 a3bf 8173 afbe a175 f93e
00000250: 5fcd c5bd f9db c8be beee 18b9 5653 ae3e
00000260: d9d4 bdbf 175a 1ac0 b156 753e ca5d 0ac0
00000270: 390f 6ebf 1e51 663f 9f26 aebe 213b 8a3e
00000280: 5a3d a4be b2fa 12c0 78f6 8abf a6a2 d03f
00000290: eddf 58be b84d 82bf b74a 58bf 61dd 603f
000002a0: 4f2a 10bf 5997 b2bf cbff c3bf 689f 97bf
000002b0: 8204 bdbf 0d4c 093e b4e8 573e 6b4d 8a3f
000002c0: eeaa 4abf b91d 3abe 59db a53f 8f6e 10c0
000002d0: e8a3 923c c56c 243f 141f 84bb 1240 6dbe
000002e0: 588a d6bc cce3 243e f694 39bf 6626 2dbf
000002f0: f662 1d3f dcdf 08c0 1354 113f d9e8 29bf
00000300: 401e 87be e939 6c3f 234b 4fbe 2473 ba3d
00000310: c50f e9be 8267 dbbf 7745 1e3f 8a9a b6be
00000320: aa08 593f 77ab 50bf e1de 28bf d35c 48bf
00000330: 6a78 1c3f 1948 c23f 0878 dc3e c7d3 2ebf
00000340: f508 76be 9708 14bf 1ad8 e93d fb4d 19bf
00000350: e5cb 093f 7a68 54bd 7edb a23f 3365 08bf
00000360: 76b2 d7be 76f3 0dbf 275a 2c3e 179d 503e
00000370: fbf2 d73f c853 bd3f e9fd 0d3f 744e 553f
00000380: 9e26 043f 73b1 a03e 93a9 27c0 f402 b6bf
00000390: d4f3 533f d382 80bf 8679 48bf 809d 213d
000003a0: 2ef4 39be 8e1c 3e3e 4536 02bf f7af 473f
000003b0: 5020 75bf 7f0d 583f 6f46 3ebf 1f45 a5bf
000003c0: 6dbd 203f 3412 82bf 4457 0040 37b9 9abf
000003d0: 2c3e 863e 32d3 4dbf 8202 1cbf fb29 0b3f
000003e0: 6946 403f c9bd 563e d677 d93f 06ac 88be
000003f0: 7cca e9be f0fe 033f 4162 183e a450 9b3f
